…
es = [&#39;a&#39;, &#39;b&#39;, &#39;c&#39;, &#39;d&#39;, &#39;e&#39;] embed_input = [(u,i,j) for u,i,j in zip(colnames[:4], [4]*4, [8]*4)] deep_column_idx = {k:v for v,k in enumerate(colnames)} continuous_cols = [&#39;e&#39;] # my advice would be to not use dropout in the last layer, but I add the option because you never # know..there is crazy people everywhere. deepdense = DeepDense(hidden_layers=[16,8], dropout=[0.5, 0.], batchnorm=True, deep_column_idx=deep_column_idx, embed_input=embed_input, continuous_cols=continuous_cols) deepdense . DeepDense( (embed_layers): ModuleDict( (emb_layer_a): Embedding(4, 8) (emb_layer_b): Embedding(4, 8) (emb_layer_c): Embedding(4, 8) (emb_layer_d): Embedding(4, 8) ) (embed_dropout): Dropout(p=0.0, inplace=False) (dense): Sequential( (dense_layer_0): Sequential( (0): Linear(in_features=33, out_features=16, bias=True) (1): LeakyReLU(negative_slope=0.01, inplace=True) (2): BatchNorm1d(16, eps=1e-05, momentum=0.1, affine=True, track_running_stats=True) (3): Dropout(p=0.5, inplace=False) ) (dense_layer_1): Sequential( (0): Linear(in_features=16, out_features=8, bias=True) (1): LeakyReLU(negative_slope=0.01, inplace=True) (2): BatchNorm1d(8, eps=1e-05, momentum=0.1, affine=True, track_running_stats=True) (3): Dropout(p=0.0, inplace=False) ) ) ) . deepdense(X_deep) . tensor([[ … grad_fn=&lt;NativeBatchNormBackward&gt;) . Let&#39;s now have a look to DeepDenseResnet: . from pytorch_widedeep.models import DeepDenseResnet deepdense = DeepDenseResnet(blocks=[16,8], dropout=0.5, deep_column_idx=deep_column_idx, embed_input=embed_input, continuous_cols=continuous_cols) deepdense . DeepDenseResnet( (embed_layers): ModuleDict( (emb_layer_a): Embedding(4, 8) (emb_layer_b): Embedding(4, 8) (emb_layer_c): Embedding(4, 8) (emb_layer_d): Embedding(4, 8) ) (embed_dropout): Dropout(p=0.0, inplace=False) (dense_resnet): Sequential( (lin1): Linear(in_features=33, out_features=16, bias=True) (bn1): BatchNorm1d(16, eps=1e-05, momentum=0.1, affine=True, track_running_stats=True) (block_0): BasicBlock( (lin1): Linear(in_features=16, out_features=8, bias=True) (bn1): BatchNorm1d(8, eps=1e-05, momentum=0.1, affine=True, track_running_stats=True) (leaky_relu): LeakyReLU(negative_slope=0.01, inplace=True) (dp): Dropout(p=0.5, inplace=False) (lin2): Linear(in_features=8, out_features=8, bias=True) (bn2): BatchNorm1d(8, eps=1e-05, momentum=0.1, affine=True, track_running_stats=True) (resize): Sequential( (0): Linear(in_features=16, out_features=8, bias=True) (1): BatchNorm1d(8, eps=1e-05, momentum=0.1, affine=True, track_running_stats=True) ) ) ) ) . deepdense(X_deep) . tensor([[… grad_fn=&lt;LeakyReluBackward1&gt;) . 5.3. DeepText . The DeepText class within the WideDeep package is a standard and simple stack of LSTMs on top of word embeddings. You could also add a FC-Head on top of the LSTMs. The word embeddings can be pre-trained. In the future I aim to include ful
…
final prediction) so that these activations are collected by WideDeep and combined accordingly. In addition, the models MUST also contain an attribute output_dim with the size of these last layers of activations. . I will illustrate all of the above more in detail in the second post of these series. . Let&#39;s have a look to DeepText . import torch from pytorch_widedeep.models import DeepText . X_text = torch.cat((torch.zeros([5,1]), torch.empty(5, 4).random_(1,4)), axis=1) deeptext = DeepText(vocab_size=4, hidden_dim=4, n_layers=1, padding_idx=0, embed_dim=4) deeptext . DeepText( (word_embed): Embedding(4, 4, padding_idx=0) (rnn): LSTM(4, 4, batch_first=True) ) . deeptext(X_text) . tensor([[ … grad_fn=&lt;SelectBackward&gt;) . You could, if you wanted, add a Fully Connected Head (FC-Head) on top of it . deeptext = DeepText(vocab_size=4, hidden_dim=8, n_layers=1, padding_idx=0, embed_dim=4, head_layers=[8,4], head_batchnorm=True, head_dropout=[0.5, 0.5]) . deeptext . DeepText( (word_embed): Embedding(4, 4, padding_idx=0) (rnn): LSTM(4, 8, batch_first=True) (texthead): Sequential( (dense_layer_0): Sequential( (0): Linear(in_features=8, out_features=4, bias=True) (1): LeakyReLU(negative_slope=0.01, inplace=True) (2): BatchNorm1d(4, eps=1e-05, momentum=0.1, affine=True, track_running_stats=True) (3): Dropout(p=0.5, inplace=False) ) ) ) . deeptext(X_text) . tensor([[ … grad_fn=&lt;SelectBackward&gt;) . 5.4. DeepImage . The DeepImage class within the WideDeep package builds either a pre-trained ResNet (18, 34, or 50. Default is 18) or a stack of CNNs, to which one can add a FC-Head. If is a pre-trained ResNet, you can chose how many layers you want to defrost deep into the network with the parameter freeze. Read here for more details. . from pytorch_widedeep.models import DeepImage X_img = torch.rand((2,3,224,224)) deepimage = DeepImage(pretrained=False, head_layers=[512, 64, 8]) deepimage . DeepImage( (backbone): Sequential( (0): Sequential( (0): Conv2d(3, 64, kernel_size=(3, 3), stride=(1, 1), padding=(1, 1)) (1): BatchNorm2d(64, eps=1e-05, momentum=0.01, affine=True, track_running_stats=True) (2): LeakyReLU(negative_slope=0.1, inplace=True) (maxpool): MaxPool2d(kernel_size=2, stride=2, padding=0, dilation=1, ceil_mode=False) ) (1): Sequential( (0): Conv2d(64, 128, kernel_size=(1, 1), stride=(1, 1)) (1): BatchNorm2d(128, eps=1e-05, momentum=0.01, affine=True, track_running_stats=True) (2): LeakyReLU(negative_slope=0.1, inplace=True) ) (2): Sequential( (0): Conv2d(128, 256, kernel_size=(1, 1), stride=(1, 1)) (1): BatchNorm2d(256, eps=1e-05, momentum=0.01, affine=True, track_running_stats=True) (2): LeakyReLU(negative_slope=0.1, inplace=True) ) (3): Sequential( (0): Conv2d(256, 512, kernel_size=(1, 1), stride=(1, 1)) (1): BatchNorm2d(512, eps=1e-05, momentum=0.01, affine=True, track_running_stats=True) (2): LeakyReLU(negative_slope=0.1, inplace=True) (adaptiveavgpool): AdaptiveAvgPool2d(output_size=(1, 1)) ) ) (imagehead): Sequential( (dense_layer_0): Sequential( (0): Linear(in_features=512, out_features=64, bias=True) (1): LeakyReLU(negative_slope=0.01, inplace=True) (2): Dropout(p=0.0, inplace=False) ) (dense_layer_1): Sequential( (0): Linear(in_features=64, out_features=8, bias=True) (1): LeakyReLU(negative_slope=0.01, inplace=True) (2): Dropout(p=0.0, inplace=False) ) ) ) . deepimage(X_img) . tensor([[… grad_fn=&lt;LeakyReluBackward1&gt;) . 5.5. deephead . Note that I do not use uppercase here. This is because, by default, the deephead is not defined outside WideDeep as a class on its own, like the the rest of the components. . When 
…
