…
ings_input, continuous_cols=cont_cols, batchnorm_cont=True, ) . /Users/javier/.pyenv/versions/3.7.9/envs/wdposts/lib/python3.7/site-packages/ipykernel/ipkernel.py:283: DeprecationWarning: `should_run_async` will not call `transform_cell` automatically in the future. Please pass the result to `transformed_cell` argument and any exception that happen during thetransform in `preprocessing_exc_tuple` in IPython 7.17 and above. and should_run_async(code) . Let&#39;s have a look to the model we just built and how it relates to Fig 1 . tabmlp . TabMlp( (embed_layers): ModuleDict( (emb_layer_education): Embedding(17, 8, padding_idx=0) (emb_layer_marital_status): Embedding(8, 6, padding_idx=0) (emb_layer_occupation): Embedding(16, 8, padding_idx=0) (emb_layer_race): Embedding(6, 6, padding_idx=0) (emb_layer_relationship): Embedding(7, 6, padding_idx=0) (emb_layer_workclass): Embedding(10, 6, padding_idx=0) ) (embedding_dropout): Dropout(p=0.1, inplace=False) (norm): BatchNorm1d(4, eps=1e-05, momentum=0.1, affine=True, track_running_stats=True) (tab_mlp): MLP( (mlp): Sequential( (dense_layer_0): Sequential( (0): Dropout(p=0.1, inplace=False) (1): Linear(in_features=44, out_features=200, bias=True) (2): ReLU(inplace=True) ) (dense_layer_1): Sequential( (0): Dropout(p=0.1, inplace=False) (1): Linear(in_features=200, out_features=100, bias=True) (2): ReLU(inplace=True) ) ) ) ) . As we can see, we have a series of columns that would be represented as embeddings. The embeddings from all these columns are concatenated, to form a tensor of dim (bsz, 40) where bsz is batch size. Then, the &quot;batchnormed&quot; continuous columns are also concatenated, resulting in a tensor of dim (bsz, 44), that 
…
ds to be built with the WideDeep class. . This is because the library is, a priori, intended to build WideDeep models (and hence its name). Once the model is built it is passed to the Trainer (as we will see now). The Trainer class is coded to receive a parent model of class WideDeep with children that are the model components. This is very convenient for a number of aspects in the library. . Effectively this simply requires one extra line of code. . model = WideDeep(deeptabular=tabmlp) . model . WideDeep( (deeptabular): Sequential( (0): TabMlp( (embed_layers): ModuleDict( (emb_layer_education): Embedding(17, 8, padding_idx=0) (emb_layer_marital_status): Embedding(8, 6, padding_idx=0) (emb_layer_occupation): Embedding(16, 8, padding_idx=0) (emb_layer_race): Embedding(6, 6, padding_idx=0) (emb_layer_relationship): Embedding(7, 6, padding_idx=0) (emb_layer_workclass): Embedding(10, 6, padding_idx=0) ) (embedding_dropout): Dropout(p=0.1, inplace=False) (norm): BatchNorm1d(4, eps=1e-05, momentum=0.1, affine=True, track_running_stats=True) (tab_mlp): MLP( (mlp): Sequential( (dense_layer_0): Sequential( (0): Dropout(p=0.1, inplace=False) (1): Linear(in_features=44, out_features=200, bias=True) (2): ReLU(inplace=True) ) (dense_layer_1): Sequential( (0): Dropout(p=0.1, inplace=False) (1): Linear(in_features=200, out_features=100, bias=True) (2): ReLU(inplace=True) ) ) ) ) (1): Linear(in_features=100, out_features=1, bias=True) ) ) . As we can see, our model has the final connection now and is a model of class WideDeep formed by one single component, deeptabular, which is a model of class TabMlp formed mainly by the embed_layers and an MLP very creatively called tab_mlp. . We are now ready to train it. The code below simply runs with defaults. one could use any torch optimizer,
…
 blocks_dims=[200, 100, 100], mlp_hidden_dims=[100, 50], ) model = WideDeep(deeptabular=tabresnet) model . /Users/javier/.pyenv/versions/3.7.9/envs/wdposts/lib/python3.7/site-packages/ipykernel/ipkernel.py:283: DeprecationWarning: `should_run_async` will not call `transform_cell` automatically in the future. Please pass the result to `transformed_cell` argument and any exception that happen during thetransform in `preprocessing_exc_tuple` in IPython 7.17 and above. and should_run_async(code) . WideDeep( (deeptabular): Sequential( (0): TabResnet( (embed_layers): ModuleDict( (emb_layer_education): Embedding(17, 8, padding_idx=0) (emb_layer_marital_status): Embedding(8, 6, padding_idx=0) (emb_layer_occupation): Embedding(16, 8, padding_idx=0) (emb_layer_race): Embedding(6, 6, padding_idx=0) (emb_layer_relationship): Embedding(7, 6, padding_idx=0) (emb_layer_workclass): Embedding(10, 6, padding_idx=0) ) (embedding_dropout): Dropout(p=0.1, inplace=False) (norm): BatchNorm1d(4, eps=1e-05, momentum=0.1, affine=True, track_running_stats=True) (tab_resnet): DenseResnet( (dense_resnet): Sequential( (lin1): Linear(in_features=44, out_features=200, bias=True) (bn1): BatchNorm1d(200, eps=1e-05, momentum=0.1, affine=True, track_running_stats=True) (block_0): BasicBlock( (lin1): Linear(in_features=200, out_features=100, bias=True) (bn1): BatchNorm1d(100, eps=1e-05, momentum=0.1, affine=True, track_running_stats=True) (leaky_relu): LeakyReLU(negative_slope=0.01, inplace=True) (dp): Dropout(p=0.1, inplace=False) (lin2): Linear(in_features=100, out_features=100, bias=True) (bn2): BatchNorm1d(100, eps=1e-05, momentum=0.1, affine=True, track_running_stats=True) (resize): Sequential( (0): Linear(in_features=200, out_features=100, bias=True) (1): BatchNorm1d(100, eps=1e-05, momentum=0.1, affine=True, track_running_stats=True) ) ) (block_1): BasicBlock( (lin1): Linear(in_features=100, out_features=100, bias=True) (bn1): BatchNorm1d(100, eps=1e-05, momentum=0.1, affine=True, track_running_stats=True) (leaky_relu): LeakyReLU(negative_slope=0.01, inplace=True) (dp): Dropout(p=0.1, inplace=False) (lin2): Linear(in_features=100, out_features=100, bias=True) (bn2): BatchNorm1d(100, eps=1e-05, momentum=0.1, affine=True, track_running_stats=True) ) ) ) (tab_resnet_mlp): MLP( (mlp): Sequential( (dense_layer_0): Sequential( (0): Dropout(p=0.1, inplace=False) (1): Linear(in_features=100, out_features=100, bias=True) (2): ReLU(inplace=True) ) (dense_layer_1): Sequential( (0): Dropout(p=0.1, inplace=False) (1): Linear(in_features=100, out_features=50, bias=True) (2): ReLU(inplace=True) ) ) ) ) (1): Linear(in_features=50, out_features=1, bias=True) ) ) . As we did previously with the TabMlp, let&#39;s &quot;walk through&quot; the model. As we can see, the object model is an instance of a WideDeep model formed by a single component, deeptabular that is a TabResnet model. The TabResnet model is formed by a series of embeddings that are concatenated themselves, and then further concatenated with the no
…
True, num_blocks=3, ) model = WideDeep(deeptabular=tabtransformer) model . /Users/javier/.pyenv/versions/3.7.9/envs/wdposts/lib/python3.7/site-packages/ipykernel/ipkernel.py:283: DeprecationWarning: `should_run_async` will not call `transform_cell` automatically in the future. Please pass the result to `transformed_cell` argument and any exception that happen during thetransform in `preprocessing_exc_tuple` in IPython 7.17 and above. and should_run_async(code) . WideDeep( (deeptabular): Sequential( (0): TabTransformer( (embed_layers): ModuleDict( (emb_layer_education): SharedEmbeddings( (embed): Embedding(17, 32, padding_idx=0) (dropout): Dropout(p=0.1, inplace=False) ) (emb_layer_marital_status): SharedEmbeddings( (embed): Embedding(8, 32, padding_idx=0) (dropout): Dropout(p=0.1, inplace=False) ) (emb_layer_occupation): SharedEmbeddings( (embed): Embedding(16, 32, padding_idx=0) (dropout): Dropout(p=0.1, inplace=False) ) (emb_layer_race): SharedEmbeddings( (embed): Embedding(6, 32, padding_idx=0) (dropout): Dropout(p=0.1, inplace=False) ) (emb_layer_relationship): SharedEmbeddings( (embed): Embedding(7, 32, padding_idx=0) (dropout): Dropout(p=0.1, inplace=False) ) (emb_layer_workclass): SharedEmbeddings( (embed): Embedding(10, 32, padding_idx=0) (dropout): Dropout(p=0.1, inplace=False) ) ) (blks): Sequential( (block0): TransformerEncoder( (self_attn): MultiHeadedAttention( (dropout): Dropout(p=0.1, inplace=False) (inp_proj): Linear(in_features=32, out_features=96, bias=True) (out_proj): Linear(in_features=32, out_features=32, bias=True) ) (feed_forward): PositionwiseFF( (w_1): Linear(in_features=32, out_features=128, bias=True) (w_2): Linear(in_features=128, out_features=32, bias=True) (dropout): Dropout(p=0.1, inplace=False) (activation): GELU() ) (attn_addnorm): AddNorm( (dropout): Dropout(p=0.1, inplace=False) (ln): LayerNorm((32,), eps=1e-05, elementwise_affine=True) ) (ff_addnorm): AddNorm( (dropout): Dropout(p=0.1, inplace=False) (ln): LayerNorm((32,), eps=1e-05, elementwise_affine=True) ) ) (block1): TransformerEncoder( (self_attn): MultiHeadedAttention( (dropout): Dropout(p=0.1, inplace=False) (inp_proj): Linear(in_features=32, out_features=96, bias=True) (out_proj): Linear(in_features=32, out_features=32, bias=True) ) (feed_forward): PositionwiseFF( (w_1): Linear(in_features=32, out_features=128, bias=True) (w_2): Linear(in_features=128, out_features=32, bias=True) (dropout): Dropout(p=0.1, inplace=False) (activation): GELU() ) (attn_addnorm): AddNorm( (dropout): Dropout(p=0.1, inplace=False) (ln): LayerNorm((32,), eps=1e-05, elementwise_affine=True) ) (ff_addnorm): AddNorm( (dropout): Dropout(p=0.1, inplace=False) (ln): LayerNorm((32,), eps=1e-05, elementwise_affine=True) ) ) (block2): TransformerEncoder( (self_attn): MultiHeadedAttention( (dropout): Dropout(p=0.1, inplace=False) (inp_proj): Linear(in_features=32, out_features=96, bias=True) (out_proj): Linear(in_features=32, out_features=32, bias=True) ) (feed_forward): PositionwiseFF( (w_1): Linear(in_features=32, out_features=128, bias=True) (w_2): Linear(in_features=128, out_features=32, bias=True) (dropout): Dropout(p=0.1, inplace=False) (activation): GELU() ) (attn_addnorm): AddNorm( (dropout): Dropout(p=0.1, inplace=False) (ln): LayerNorm((32,), eps=1e-05, elementwise_affine=True) ) (ff_addnorm): AddNorm( (dropout): Dropout(p=0.1, inplace=False) (ln): LayerNorm((32,), eps=1e-05, elementwise_affine=True) ) ) ) (tab_transformer_mlp): MLP( (mlp): Sequential( (dense_layer_0): Sequential( (0): Linear(in_features=196, out_features=784, bias=True) (1): ReLU(inplace=True) (2): Dropout(p=0.1, inplace=False) ) (dense_layer_1): Sequential( (0): Linear(in_features=784, out_features=392, bias=True) (1): ReLU(inplace=True) (2): Dropout(p=0.1, inplace=False) ) ) ) ) (1): Linear(in_features=392, out_features=1, bias=True) ) ) . Let&#39;s walk through the model. Initially, and as always, we have the embeddings that will represent the categorical columns. The only particular aspect in this model is that the embeddings are of class SharedEmbeddings, which I described before. These embeddings are stacked and passed through three transformer blocks. The output for all the cate
…
= tab_preprocessor.fit_transform(adult) . wide = Wide(wide_dim=np.unique(X_wide).shape[0], pred_dim=1) # We can add dropout and batchnorm to the dense layers, as well as chose the order of the operations deeptabular = TabMlp(column_idx=tab_preprocessor.column_idx, mlp_hidden_dims=[64,32], mlp_dropout=[0.5, 0.5], mlp_batchnorm=True, mlp_linear_first = True, embed_input=tab_preprocessor.embeddings_input, continuous_cols=continuous_cols) model = WideDeep(wide=wide, deeptabular=deeptabular) . Let&#39;s have a look to the model that we will be running: . model . WideDeep( (wide): Wide( (wide_linear): Embedding(797, 1, padding_idx=0) ) (deeptabular): Sequential( (0): TabMlp( (embed_layers): ModuleDict( (emb_layer_education): Embedding(17, 32, padding_idx=0) (emb_layer_native_country): Embedding(43, 32, padding_idx=0) (emb_layer_occupation): Embedding(16, 32, padding_idx=0) (emb_layer_relationship): Embedding(7, 32, padding_idx=0) (emb_layer_workclass): Embedding(10, 32, padding_idx=0) ) (embedding_dropout): Dropout(p=0.1, inplace=False) (tab_mlp): MLP( (mlp): Sequential( (dense_layer_0): Sequential( (0): Linear(in_features=162, out_features=64, bias=False) (1): ReLU(inplace=True) (2): BatchNorm1d(64, eps=1e-05, momentum=0.1, affine=True, track_running_stats=True) (3): Dropout(p=0.5, inplace=False) ) (dense_layer_1): Sequential( (0): Linear(in_features=64, out_features=32, bias=True) (1): ReLU(inplace=True) (2): Dropout(p=0.5, inplace=False) ) ) ) ) (1): Linear(in_features=32, out_features=1, bias=True) ) ) . Now we will define the set up for each model component, including optimizers, learning rate schedulers and initializers: . from pytorch_widedeep.initializers import KaimingNormal, XavierNormal from pytorch_widedeep.callbacks import ModelCheckpoint, LRHistory, EarlyStopping from pytorch_widedeep.optim import RAdam . # Optimizers wide_opt = torch.opti
…
opout=0.5, embed_matrix=text_preprocessor.embedding_matrix) # Pretrained Resnet 18 (default is all but last 2 conv blocks frozen) plus a FC-Head 512-&gt;256-&gt;128 deepimage = DeepImage(pretrained=True, head_hidden_dims=[512, 256, 128]) . ...and, as we build the model, add a fully connected head via the input parameters (could also be used via the additional component/parameter deephead) . model = WideDeep( wide=wide, deeptabular=deeptabular, deeptext=deeptext, deepimage=deepimage, head_hidden_dims=[128, 64] ) . Let&#39;s have a look to the model . model . WideDeep( (wide): Wide( (wide_linear): Embedding(357, 1, padding_idx=0) ) (deeptabular): TabMlp( (embed_layers): ModuleDict( (emb_layer_accommodates_catg): Embedding(4, 16, padding_idx=0) (emb_layer_bathrooms_catg): Embedding(4, 16, padding_idx=0) (emb_layer_bedrooms_catg): Embedding(5, 16, padding_idx=0) (emb_layer_beds_catg): Embedding(5, 16, padding_idx=0) (emb_layer_cancellation_policy): Embedding(6, 16, padding_idx=0) (emb_layer_guests_included_catg): Embedding(4, 16, padding_idx=0) (emb_layer_host_listings_count_catg): Embedding(5, 16, padding_idx=0) (emb_layer_minimum_nights_catg): Embedding(4, 16, padding_idx=0) (emb_layer_neighbourhood_cleansed): Embedding(33, 64, padding_idx=0) ) (embedding_dropout): Dropout(p=0.1, inplace=False) (norm): BatchNorm1d(4, eps=1e-05, momentum=0.1, affine=True, track_running_stats=True) (tab_mlp): MLP( (mlp): Sequential( (dense_layer_0): Sequential( (0): BatchNorm1d(196, eps=1e-05, momentum=0.1, affine=True, track_running_stats=True) (1): Dropout(p=0.1, inplace=False) (2): Linear(in_features=196, out_features=128, bias=False) (3): ReLU(inplace=True) ) (dense_layer_1): Sequential( (0): Dropout(p=0.1, inplace=False) (1): Linear(in_features=128, out_features=64, bias=True) (2): ReLU(inplace=True) ) ) ) ) (deeptext): DeepText( (word_embed): Embedding(2192, 100, padding_idx=1) (rnn): LSTM(100, 64, num_layers=2, batch_first=True, dropout=0.5) ) (deepimage): DeepImage( (backbone): Sequential( (0): Conv2d(3, 64, kernel_size=(7, 7), stride=(2, 2), padding=(3, 3), bias=False) (1): BatchNorm2d(64, eps=1e-05, momentum=0.1, affine=True, track_running_stats=True) (2): ReLU(inplace=True) (3): MaxPool2d(kernel_size=3, stride=2, padding=1, dilation=1, ceil_mode=False) (4): Sequential( (0): BasicBlock( (conv1): Conv2d(64, 64, kernel_size=(3, 3), stride=(1, 1), padding=(1, 1), bias=False) (bn1): BatchNorm2d(64, eps=1e-05, momentum=0.1, affine=True, track_running_stats=True) (relu): ReLU(inplace=True) (conv2): Conv2d(64, 64, kernel_size=(3, 3), stride=(1, 1), padding=(1, 1), bias=False) (bn2): BatchNorm2d(64, eps=1e-05, momentum=0.1, affine=True, track_running_stats=True) ) (1): BasicBlock( (conv1): Conv2d(64, 64, kernel_size=(3, 3), stride=(1, 1), padding=(1, 1), bias=False) (bn1): BatchNorm2d(64, eps=1e-05, momentum=0.1, affine=True, track_running_stats=True) (relu): ReLU(inplace=True) (conv2): Conv2d(64, 64, kernel_size=(3, 3), stride=(1, 1), padding=(1, 1), bias=False) (bn2): BatchNorm2d(64, eps=1e-05, momentum=0.1, affine=True, track_running_stats=True) ) ) (5): Sequential( (0): BasicBlock( (conv1): Conv2d(64, 128, kernel_size=(3, 3), stride=(2, 2), padding=(1, 1), bias=False) (bn1): BatchNorm2d(128, eps=1e-05, momentum=0.1, affine=True, track_running_stats=True) (relu): ReLU(inplace=True) (conv2): Conv2d(128, 128, kernel_size=(3, 3), stride=(1, 1), padding=(1, 1), bias=False) (bn2): BatchNorm2d(128, eps=1e-05, momentum=0.1, affine=True, track_running_stats=True) (downsample): Sequential( (0): Conv2d(64, 128, kernel_size=(1, 1), stride=(2, 2), bias=False) (1): BatchNorm2d(128, eps=1e-05, momentum=0.1, affine=True, track_running_stats=True) ) ) (1): BasicBlock( (conv1): Conv2d(128, 128, kernel_size=(3, 3), stride=(1, 1), padding=(1, 1), bias=False) (bn1): BatchNorm2d(128, eps=1e-05, momentum=0.1, affine=True, track_running_stats=True) (relu): ReLU(inplace=True) (conv2): Conv2d(128, 128, kernel_size=(3, 3), stride=(1, 1), padding=(1, 1), bias=False) (bn2): BatchNorm2d(128, eps=1e-05, momentum=0.1, affine=True, track_running_stats=True) ) ) (6): Sequential( (0): BasicBlock( (conv1): Conv2d(128, 256, kernel_size=(3, 3), stride=(2, 2), padding=(1, 1), bias=False) (bn1): BatchNorm2d(256, eps=1e-05, momentum=0.1, affine=True, track_running_stats=True) (relu): ReLU(inplace=True) (conv2): Conv2d(256, 256, kernel_size=(3, 3), stride=(1, 1), padding=(1, 1), bias=False) (bn2): BatchNorm2d(256, eps=1e-05, momentum=0.1, affine=True, track_running_stats=True) (downsample): Sequential( (0): Conv2d(128, 256, kernel_size=(1, 1), stride=(2, 2), bias=False) (1): BatchNorm2d(256, eps=1e-05, momentum=0.1, affine=True, track_running_stats=True) ) ) (1): BasicBlock( (conv1): Conv2d(256, 256, kernel_size=(3, 3), stride=(1, 1), padding=(1, 1), bias=False) (bn1): BatchNorm2d(256, eps=1e-05, momentum=0.1, affine=True, track_running_stats=True) (relu): ReLU(inplace=True) (conv2): Conv2d(256, 256, kernel_size=(3, 3), stride=(1, 1), padding=(1, 1), bias=False) (bn2): BatchNorm2d(256, eps=1e-05, momentum=0.1, affine=True, track_running_stats=True) ) ) (7): Sequential( (0): BasicBlock( (conv1): Conv2d(256, 512, kernel_size=(3, 3), stride=(2, 2), padding=(1, 1), bias=False) (bn1): BatchNorm2d(512, eps=1e-05, momentum=0.1, affine=True, track_running_stats=True) (relu): ReLU(inplace=True) (conv2): Conv2d(512, 512, kernel_size=(3, 3), stride=(1, 1), padding=(1, 1), bias=False) (bn2): BatchNorm2d(512, eps=1e-05, momentum=0.1, affine=True, track_running_stats=True) (downsample): Sequential( (0): Conv2d(256, 512, kernel_size=(1, 1), stride=(2, 2), bias=False) (1): BatchNorm2d(512, eps=1e-05, momentum=0.1, affine=True, track_running_stats=True) ) ) (1): BasicBlock( (conv1): Conv2d(512, 512, kernel_size=(3, 3), stride=(1, 1), padding=(1, 1), bias=False) (bn1): BatchNorm2d(512, eps=1e-05, momentum=0.1, affine=True, track_running_stats=True) (relu): ReLU(inplace=True) (conv2): Conv2d(512, 512, kernel_size=(3, 3), stride=(1, 1), padding=(1, 1), bias=False) (bn2): BatchNorm2d(512, eps=1e-05, momentum=0.1, affine=True, track_running_stats=True) ) ) (8): AdaptiveAvgPool2d(output_size=(1, 1)) ) (imagehead): MLP( (mlp): Sequential( (dense_layer_0): Sequential( (0): Dropout(p=0.1, inplace=False) (1): Linear(in_features=512, out_features=256, bias=True) (2): ReLU(inplace=True) ) (dense_layer_1): Sequential( (0): Dropout(p=0.1, inplace=False) (1): Linear(in_features=256, out_features=128, bias=True) (2): ReLU(inplace=True) ) ) ) ) (deephead): MLP( (mlp): Sequential( (dense_layer_0): Sequential( (0): Dropout(p=0.1, inplace=False) (1): Linear(in_features=256, out_features=128, bias=True) (2): ReLU(inplace=True) ) (dense_layer_1): Sequential( (0): Dropout(p=0.1, inplace=False) (1): Linear(in_features=128, out_features=64, bias=True) (2): ReLU(inplace=True) ) ) (head_out): Linear(in_features=64, out_features=1, bias=True) ) ) . This is a big model, so let me go component by component. . wide: simple linear model implemented via an Embedding layer . | deeptabular: embeddings concatenated to categorical columns that are then passed through two dense layers with the following sizes [196 $ rightarrow$ 128 $ rightarrow$ 64]. . | deeptext: two stacked LTSMs that will received th
…
or = WidePreprocessor(wide_cols=wide_cols, crossed_cols=crossed_cols) X_wide = wide_preprocessor.fit_transform(adult) # DEEP tab_preprocessor = TabPreprocessor(embed_cols=cat_embed_cols, continuous_cols=continuous_cols) X_tab = tab_preprocessor.fit_transform(adult) . wide = Wide(wide_dim=np.unique(X_wide).shape[0], pred_dim=1) deeptabular = TabResnet( blocks_dims=[128, 64, 32], column_idx=tab_preprocessor.column_idx, embed_input=tab_preprocessor.embeddings_input, continuous_cols=continuous_cols) model = WideDeep(wide=wide, deeptabular=deeptabular) . model . WideDeep( (wide): Wide( (wide_linear): Embedding(797, 1, padding_idx=0) ) (deeptabular): Sequential( (0): TabResnet( (embed_layers): ModuleDict( (emb_layer_education): Embedding(17, 32, padding_idx=0) (emb_layer_native_country): Embedding(43, 32, padding_idx=0) (emb_layer_occupation): Embedding(16, 32, padding_idx=0) (emb_layer_relationship): Embedding(7, 32, padding_idx=0) (emb_layer_workclass): Embedding(10, 32, padding_idx=0) ) (embedding_dropout): Dropout(p=0.1, inplace=False) (tab_resnet): DenseResnet( (dense_resnet): Sequential( (lin1): Linear(in_features=162, out_features=128, bias=True) (bn1): BatchNorm1d(128, eps=1e-05, momentum=0.1, affine=True, track_running_stats=True) (block_0): BasicBlock( (lin1): Linear(in_features=128, out_features=64, bias=True) (bn1): BatchNorm1d(64, eps=1e-05, momentum=0.1, affine=True, track_running_stats=True) (leaky_relu): LeakyReLU(negative_slope=0.01, inplace=True) (dp): Dropout(p=0.1, inplace=False) (lin2): Linear(in_features=64, out_features=64, bias=True) (bn2): BatchNorm1d(64, eps=1e-05, momentum=0.1, affine=True, track_running_stats=True) (resize): Sequential( (0): Linear(in_features=128, out_features=64, bias=True) (1): BatchNorm1d(64, eps=1e-05, momentum=0.1, affine=True, track_running_stats=True) ) ) (block_1): BasicBlock( (lin1): Linear(in_features=64, out_features=32, bias=True) (bn1): BatchNorm1d(32, eps=1e-05, momentum=0.1, affine=True, track_running_stats=True) (leaky_relu): LeakyReLU(negative_slope=0.01, inplace=True) (dp): Dropout(p=0.1, inplace=False) (lin2): Linear(in_features=32, out_features=32, bias=True) (bn2): BatchNorm1d(32, eps=1e-05, momentum=0.1, affine=True, track_running_stats=True) (resize): Sequential( (0): Linear(in_features=64, out_features=32, bias=True) (1): BatchNorm1d(32, eps=1e-05, momentum=0.1, affine=True, track_running_stats=True) ) ) ) ) ) (1): Linear(in_features=32, out_features=1, bias=True) ) ) . trainer = Trainer(model, objective=&quot;binary&quot;, metrics=[Accuracy]) . trainer.fit(X_wide=X_wide, X_tab=X_tab, target=target, val_split=0.1, n_epochs=2, batch_size=256) . epoch 1: 100%|██████████| 172/172 [00:06&lt;00:00, 26.32it/s, loss=0.415, metrics={&#39;acc&#39;: 0.8016}] valid: 100%|██████████| 20/20 [00:00&lt;00:00, 74.72it/s, loss=0.36
…
model component&#39;s children: deeptabular $ rightarrow$ tab_resnet $ rightarrow$ dense_resnet $ rightarrow$ blocks . # you can just load the model as any pytorch model or use the Trainer&#39;s staticmethod `load_model` model = Trainer.load_model(&quot;models_dir/model.t&quot;) . tab_lin_layers = list(model.deeptabular.children())[1] . tab_deep_layers = list( list(list(list(model.deeptabular.children())[0].children())[2].children())[ 0 ].children() )[::-1][:2] . tab_layers = [tab_lin_layers] + tab_deep_layers . tab_layers . [Linear(in_features=32, out_features=1, bias=True), BasicBlock( (lin1): Linear(in_features=64, out_features=32, bias=True) (bn1): BatchNorm1d(32, eps=1e-05, momentum=0.1, affine=True, track_running_stats=True) (leaky_relu): LeakyReLU(negative_slope=0.01, inplace=True) (dp): Dropout(p=0.1, inplace=False) (lin2): Linear(in_features=32, out_features=32, bias=True) (bn2): BatchNorm1d(32, eps=1e-05, momentum=0.1, affine=True, track_running_stats=True) (resize): Sequential( (0): Linear(in_features=64, out_features=32, bias=True) (1): BatchNorm1d(32, eps=1e-05, momentum=0.1, affine=True, track_running_stats=True) ) ), BasicBlock( (lin1): Linear(in_features=128, out_features=64, bias=True) (bn1): BatchNorm1d(64, eps=1e-05, momentum=0.1, affine=True, track_running_stats=True) (leaky_relu): LeakyReLU(negative_slope=0.01, inplace=True) (dp): Dropout(p=0.1, inplace=False) (lin2): Linear(in_features=64, out_features=64, bias=True) (bn2): BatchNorm1d(64, eps=1e-05, momentum=0.1, affine=True, track_running_stats=True) (resize): Sequential( (0): Linear(in_features=128, out_features=64, bias=True) (1): BatchNorm1d(64, eps=1e-05, momentum=0.1, affine=True, track_running_stats=True) ) )] . new_trainer = Trainer(model, objective=&quot;binary&quot;, metrics=[Accuracy]) . new_trainer.fit( X_wide=X_wide, X_tab=X_tab, target=target, val_split=0.1, finetune=True, finetune_epochs=2, finetune_deeptabular_gradual=True, finetune_deeptabular_layers = tab_layers, finetune_deeptabular_max_lr = 0.01, n_epochs=2) . 0%| | 0/
…
idden_dim * 2 def forward(self, X): embed = self.word_embed(X.long()) o, h = self.rnn(embed) return torch.cat((h[-2], h[-1]), dim=1) . And from here, &quot;proceed as usual&quot; . wide = Wide(wide_dim=np.unique(X_wide).shape[0], pred_dim=1) deeptabular = TabMlp( mlp_hidden_dims=[64,32], column_idx=tab_preprocessor.column_idx, embed_input=tab_preprocessor.embeddings_input, continuous_cols=continuous_cols ) mydeeptext = MyDeepText(vocab_size=len(text_preprocessor.vocab.itos)) model = WideDeep(wide=wide, deeptabular=deeptabular, deeptext=mydeeptext) . model . WideDeep( (wide): Wide( (wide_linear): Embedding(357, 1, padding_idx=0) ) (deeptabular): Sequential( (0): TabMlp( (embed_layers): ModuleDict( (emb_layer_accommodates_catg): Embedding(4, 16, padding_idx=0) (emb_layer_bathrooms_catg): Embedding(4, 16, padding_idx=0) (emb_layer_bedrooms_catg): Embedding(5, 16, padding_idx=0) (emb_layer_beds_catg): Embedding(5, 16, padding_idx=0) (emb_layer_cancellation_policy): Embedding(6, 16, padding_idx=0) (emb_layer_guests_included_catg): Embedding(4, 16, padding_idx=0) (emb_layer_host_listings_count_catg): Embedding(5, 16, padding_idx=0) (emb_layer_minimum_nights_catg): Embedding(4, 16, padding_idx=0) (emb_layer_neighbourhood_cleansed): Embedding(33, 64, padding_idx=0) ) (embedding_dropout): Dropout(p=0.1, inplace=False) (tab_mlp): MLP( (mlp): Sequential( (dense_layer_0): Sequential( (0): Dropout(p=0.1, inplace=False) (1): Linear(in_features=196, out_features=64, bias=True) (2): ReLU(inplace=True) ) (dense_layer_1): Sequential( (0): Dropout(p=0.1, inplace=False) (1): Linear(in_features=64, out_features=32, bias=True) (2): ReLU(inplace=True) ) ) ) ) (1): Linear(in_features=32, out_features=1, bias=True) ) (deeptext): Sequential( (0): MyDeepText( (word_embed): Embedding(2192, 100, padding_idx=1) (rnn): GRU(100, 64, num_layers=2, batch_first=True, bidirectional=True) ) (1): Linear(in_features=128, out_features=1, bias=True) ) ) . trainer = Trainer(model, objective=&quot;regression&quot;) . trainer.fit(X_wide=X_wide, X_tab=X_tab, X_text=X_text, target=target, n_epochs=1, batch_size=64, val_split=0.2) . epoch 1: 100%|██████████| 13/13 [00:03&lt;00:00, 3.77it/s, loss=1.79e+4] valid: 100%|██████████| 4/4 [00:00&lt;00:00, 13.34it/s, loss=1.49e+4] . 6. Conclusion . In this second
…
;b&#39;, &#39;c&#39;, &#39;d&#39;, &#39;e&#39;] embed_input = [(u,i,j) for u,i,j in zip(colnames[:4], [4]*4, [8]*4)] column_idx = {k:v for v,k in enumerate(colnames)} continuous_cols = [&#39;e&#39;] # my advice would be to not use dropout in the last layer, but I add the option because you never # know..there is crazy people everywhere. tabmlp = TabMlp( mlp_hidden_dims=[16,8], mlp_dropout=[0.5, 0.], mlp_batchnorm=True, mlp_activation=&quot;leaky_relu&quot;, column_idx=column_idx, embed_input=embed_input, continuous_cols=continuous_cols) tabmlp . TabMlp( (embed_layers): ModuleDict( (emb_layer_a): Embedding(5, 8, padding_idx=0) (emb_layer_b): Embedding(5, 8, padding_idx=0) (emb_layer_c): Embedding(5, 8, padding_idx=0) (emb_layer_d): Embedding(5, 8, padding_idx=0) ) (embedding_dropout): Dropout(p=0.1, inplace=False) (tab_mlp): MLP( (mlp): Sequential( (dense_layer_0): Sequential( (0): BatchNorm1d(33, eps=1e-05, momentum=0.1, affine=True, track_running_stats=True) (1): Dropout(p=0.5, inplace=False) (2): Linear(in_features=33, out_features=16, bias=False) (3): LeakyReLU(negative_slope=0.01, inplace=True) ) (dense_layer_1): Sequential( (0): Linear(in_features=16, out_features=8, bias=True) (1): LeakyReLU(negative_slope=0.01, inplace=True) ) ) ) ) . tabmlp(X_tab) . tensor([[… grad_fn=&lt;LeakyReluBackward1&gt;) . Let&#39;s now have a look to TabResnet: . from pytorch_widedeep.models import TabResnet tabresnet = TabResnet( blocks_dims=[16, 8], blocks_dropout=0.1, column_idx=column_idx, embed_input=embed_input, continuous_cols=continuous_cols, ) tabresnet . TabResnet( (embed_layers): ModuleDict( (emb_layer_a): Embedding(5, 8, padding_idx=0) (emb_layer_b): Embedding(5, 8, padding_idx=0) (emb_layer_c): Embedding(5, 8, padding_idx=0) (emb_layer_d): Embedding(5, 8, padding_idx=0) ) (embedding_dropout): Dropout(p=0.1, inplace=False) (tab_resnet): DenseResnet( (dense_resnet): Sequential( (lin1): Linear(in_features=33, out_features=16, bias=True) (bn1): BatchNorm1d(16, eps=1e-05, momentum=0.1, affine=True, track_running_stats=True) (block_0): BasicBlock( (lin1): Linear(in_features=16, out_features=8, bias=True) (bn1): BatchNorm1d(8, eps=1e-05, momentum=0.1, affine=True, track_running_stats=True) (leaky_relu): LeakyReLU(negative_slope=0.01, inplace=True) (dp): Dropout(p=0.1, inplace=False) (lin2): Linear(in_features=8, out_features=8, bias=True) (bn2): BatchNorm1d(8, eps=1e-05, momentum=0.1, affine=True, track_running_stats=True) (resize): Sequential( (0): Linear(in_features=16, out_features=8, bias=True) (1): BatchNorm1d(8, eps=1e-05, momentum=0.1, affine=True, track_running_stats=True) ) ) ) ) ) . tabresnet(X_tab) . tensor([[… grad_fn=&lt;LeakyReluBackward1&gt;) . and finally, the TabTransformer: . from pytorch_widedeep.models import TabTransformer embed_input = [(u,i) for u,i in zip(colnames[:4], [4]*4)] tabtransformer = TabTransformer( column_idx=column_idx, embed_input=embed_input, continuous_cols=continuous_cols ) tabtransformer . TabTransformer( (embed_layers): ModuleDict( (emb_layer_a): Embedding(5, 32, padding_idx=0) (emb_layer_b): Embedding(5, 32, padding_idx=0) (emb_layer_c): Embedding(5, 32, padding_idx=0) (emb_layer_d): Embedding(5, 32, padding_idx=0) ) (embedding_dropout): Dropout(p=0.1, inplace=False) (blks): Sequential( (block0): TransformerEncoder( (self_attn): MultiHeadedAttention( (dropout): Dropout(p=0.1, inplace=False) (inp_proj): Linear(in_features=32, out_features=96, bias=True) (out_proj): Linear(in_features=32, out_features=32, bias=True) ) (feed_forward): PositionwiseFF( (w_1): Linear(in_features=32, out_features=128, bias=True) (w_2): Linear(in_features=128, out_features=32, bias=True) (dropout): Dropout(p=0.1, inplace=False) (activation): GELU() ) (attn_addnorm): AddNorm( (dropout): Dropout(p=0.1, inplace=False) (ln): LayerNorm((32,), eps=1e-05, elementwise_affine=True) ) (ff_addnorm): AddNorm( (dropout): Dropout(p=0.1, inplace=False) (ln): LayerNorm((32,), eps=1e-05, elementwise_affine=True) ) ) (block1): TransformerEncoder( (self_attn): MultiHeadedAttention( (dropout): Dropout(p=0.1, inplace=False) (inp_proj): Linear(in_features=32, out_features=96, bias=True) (out_proj): Linear(in_features=32, out_features=32, bias=True) ) (feed_forward): PositionwiseFF( (w_1): Linear(in_features=32, out_features=128, bias=True) (w_2): Linear(in_features=128, out_features=32, bias=True) (dropout): Dropout(p=0.1, inplace=False) (activation): GELU() ) (attn_addnorm): AddNorm( (dropout): Dropout(p=0.1, inplace=False) (ln): LayerNorm((32,), eps=1e-05, elementwise_affine=True) ) (ff_addnorm): AddNorm( (dropout): Dropout(p=0.1, inplace=False) (ln): LayerNorm((32,), eps=1e-05, elementwise_affine=True) ) ) (block2): TransformerEncoder( (self_attn): MultiHeadedAttention( (dropout): Dropout(p=0.1, inplace=False) (inp_proj): Linear(in_features=32, out_features=96, bias=True) (out_proj): Linear(in_features=32, out_features=32, bias=True) ) (feed_forward): PositionwiseFF( (w_1): Linear(in_features=32, out_features=128, bias=True) (w_2): Linear(in_features=128, out_features=32, bias=True) (dropout): Dropout(p=0.1, inplace=False) (activation): GELU() ) (attn_addnorm): AddNorm( (dropout): Dropout(p=0.1, inplace=False) (ln): LayerNorm((32,), eps=1e-05, elementwise_affine=True) ) (ff_addnorm): AddNorm( (dropout): Dropout(p=0.1, inplace=False) (ln): LayerNorm((32,), eps=1e-05, elementwise_affine=True) ) ) (block3): TransformerEncoder( (self_attn): MultiHeadedAttention( (dropout): Dropout(p=0.1, inplace=False) (inp_proj): Linear(in_features=32, out_features=96, bias=True) (out_proj): Linear(in_features=32, out_features=32, bias=True) ) (feed_forward): PositionwiseFF( (w_1): Linear(in_features=32, out_features=128, bias=True) (w_2): Linear(in_features=128, out_features=32, bias=True) (dropout): Dropout(p=0.1, inplace=False) (activation): GELU() ) (attn_addnorm): AddNorm( (dropout): Dropout(p=0.1, inplace=False) (ln): LayerNorm((32,), eps=1e-05, elementwise_affine=True) ) (ff_addnorm): AddNorm( (dropout): Dropout(p=0.1, inplace=False) (ln): LayerNorm((32,), eps=1e-05, elementwise_affine=True) ) ) (block4): TransformerEncoder( (self_attn): MultiHeadedAttention( (dropout): Dropout(p=0.1, inplace=False) (inp_proj): Linear(in_features=32, out_features=96, bias=True) (out_proj): Linear(in_features=32, out_features=32, bias=True) ) (feed_forward): PositionwiseFF( (w_1): Linear(in_features=32, out_features=128, bias=True) (w_2): Linear(in_features=128, out_features=32, bias=True) (dropout): Dropout(p=0.1, inplace=False) (activation): GELU() ) (attn_addnorm): AddNorm( (dropout): Dropout(p=0.1, inplace=False) (ln): LayerNorm((32,), eps=1e-05, elementwise_affine=True) ) (ff_addnorm): AddNorm( (dropout): Dropout(p=0.1, inplace=False) (ln): LayerNorm((32,), eps=1e-05, elementwise_affine=True) ) ) (block5): TransformerEncoder( (self_attn): MultiHeadedAttention( (dropout): Dropout(p=0.1, inplace=False) (inp_proj): Linear(in_features=32, out_features=96, bias=True) (out_proj): Linear(in_features=32, out_features=32, bias=True) ) (feed_forward): PositionwiseFF( (w_1): Linear(in_features=32, out_features=128, bias=True) (w_2): Linear(in_features=128, out_features=32, bias=True) (dropout): Dropout(p=0.1, inplace=False) (activation): GELU() ) (attn_addnorm): AddNorm( (dropout): Dropout(p=0.1, inplace=False) (ln): LayerNorm((32,), eps=1e-05, elementwise_affine=True) ) (ff_addnorm): AddNorm( (dropout): Dropout(p=0.1, inplace=False) (ln): LayerNorm((32,), eps=1e-05, elementwise_affine=True) ) ) ) (tab_transformer_mlp): MLP( (mlp): Sequential( (dense_layer_0): Sequential( (0): Linear(in_features=129, out_features=516, bias=True) (1): ReLU(inplace=True) (2): Dropout(p=0.1, inplace=False) ) (dense_layer_1): Sequential( (0): Linear(in_features=516, out_features=258, bias=True) (1): ReLU(inplace=True) (2): Dropout(p=0.1, inplace=False) ) ) ) ) . tabtransformer(X_tab) . tensor([[0.0000, 0.0000, 0.0000, ..., 0.0399, 0.2358, 0.3762], [0.1373, 0.0000, 0.0000, ..., 0.0550, 0.0000, 0.0000], [0.0000, 0.0000, 0.0000, ..., 0.0000, 0.0212, 0.0000], [0.3322, 0.0000, 0.0000, ..., 0.0000, 0.0000, 0.0000], [0.2914, 0.0000, 0.0000, ..., 0.0
…
eepText . import torch from pytorch_widedeep.models import DeepText . X_text = torch.cat((torch.zeros([5,1]), torch.empty(5, 4).random_(1,4)), axis=1) deeptext = DeepText(vocab_size=4, hidden_dim=4, n_layers=1, padding_idx=0, embed_dim=4) deeptext . /Users/javier/.pyenv/versions/3.7.9/envs/wdposts/lib/python3.7/site-packages/torch/nn/modules/rnn.py:60: UserWarning: dropout option adds dropout after all but last recurrent layer, so non-zero dropout expects num_layers greater than 1, but got dropout=0.1 and num_layers=1 &#34;num_layers={}&#34;.format(dropout, num_layers)) . DeepText( (word_embed): Embedding(4, 4, padding_idx=0) (rnn): LSTM(4, 4, batch_first=True, dropout=0.1) ) . deeptext(X_text) . tensor([[ … grad_fn=&lt;SelectBackward&gt;) . You could, if you wanted, add a Fully Connected Head (FC-Head) on top of it . deeptext = DeepText(vocab_size=4, hidden_dim=8, n_layers=3, padding_idx=0, embed_dim=4, head_hidden_dims=[8,4], head_batchnorm=True, head_dropout=[0.5, 0.5]) . deeptext . DeepText( (word_embed): Embedding(4, 4, padding_idx=0) (rnn): LSTM(4, 8, num_layers=3, batch_first=True, dropout=0.1) (texthead): MLP( (mlp): Sequential( (dense_layer_0): Sequential( (0): Dropout(p=0.5, inplace=False) (1): Linear(in_features=8, out_features=4, bias=True) (2): ReLU(inplace=True) ) ) ) ) . deeptext(X_text) . tensor([[… grad_fn=&lt;ReluBackward1&gt;) . 5.4. deepimage . Similarly to deeptext, pytorch-widedeep offers one model that can be passed to WideDeep as the deepimage component, DeepImage, which is either a pre-trained ResNet (18, 34, or 50. Default is 18) or a stack of CNNs, to which one can add a FC-Head. If is a pre-trained ResNet, you can chose how many layers you want to defrost deep into the network with the parameter freeze_n . from pytorch_widedeep.models import DeepImage X_img = torch.rand((2,3,224,224)) deepimage = DeepImage(head_hidden_dims=[512, 64, 8], head_activation=&quot;leaky_relu&quot;) deepimage . DeepImage( (backbone): Sequential( (0): Conv2d(3, 64, kernel_size=(7, 7), stride=(2, 2), padding=(3, 3), bias=False) (1): BatchNorm2d(64, eps=1e-05, momentum=0.1, affine=True, track_running_stats=True) (2): ReLU(inplace=True) (3): MaxPool2d(kernel_size=3, stride=2, padding=1, dilation=1, ceil_mode=False) (4): Sequential( (0): BasicBlock( (conv1): Conv2d(64, 64, kernel_size=(3, 3), stride=(1, 1), padding=(1, 1), bias=False) (bn1): BatchNorm2d(64, eps=1e-05, momentum=0.1, affine=True, track_running_stats=True) (relu): ReLU(inplace=True) (conv2): Conv2d(64, 64, kernel_size=(3, 3), stride=(1, 1), padding=(1, 1), bias=False) (bn2): BatchNorm2d(64, eps=1e-05, momentum=0.1, affine=True, track_running_stats=True) ) (1): BasicBlock( (conv1): Conv2d(64, 64, kernel_size=(3, 3), stride=(1, 1), padding=(1, 1), bias=False) (bn1): BatchNorm2d(64, eps=1e-05, momentum=0.1, affine=True, track_running_stats=True) (relu): ReLU(inplace=True) (conv2): Conv2d(64, 64, kernel_size=(3, 3), stride=(1, 1), padding=(1, 1), bias=False) (bn2): BatchNorm2d(64, eps=1e-05, momentum=0.1, affine=True, track_running_stats=True) ) ) (5): Sequential( (0): BasicBlock( (conv1): Conv2d(64, 128, kernel_size=(3, 3), stride=(2, 2), padding=(1, 1), bias=False) (bn1): BatchNorm2d(128, eps=1e-05, momentum=0.1, affine=True, track_running_stats=True) (relu): ReLU(inplace=True) (conv2): Conv2d(128, 128, kernel_size=(3, 3), stride=(1, 1), padding=(1, 1), bias=False) (bn2): BatchNorm2d(128, eps=1e-05, momentum=0.1, affine=True, track_running_stats=True) (downsample): Sequential( (0): Conv2d(64, 128, kernel_size=(1, 1), stride=(2, 2), bias=False) (1): BatchNorm2d(128, eps=1e-05, momentum=0.1, affine=True, track_running_stats=True) ) ) (1): BasicBlock( (conv1): Conv2d(128, 128, kernel_size=(3, 3), stride=(1, 1), padding=(1, 1), bias=False) (bn1): BatchNorm2d(128, eps=1e-05, momentum=0.1, affine=True, track_running_stats=True) (relu): ReLU(inplace=True) (conv2): Conv2d(128, 128, kernel_size=(3, 3), stride=(1, 1), padding=(1, 1), bias=False) (bn2): BatchNorm2d(128, eps=1e-05, momentum=0.1, affine=True, track_running_stats=True) ) ) (6): Sequential( (0): BasicBlock( (conv1): Conv2d(128, 256, kernel_size=(3, 3), stride=(2, 2), padding=(1, 1), bias=False) (bn1): BatchNorm2d(256, eps=1e-05, momentum=0.1, affine=True, track_running_stats=True) (relu): ReLU(inplace=True) (conv2): Conv2d(256, 256, kernel_size=(3, 3), stride=(1, 1), padding=(1, 1), bias=False) (bn2): BatchNorm2d(256, eps=1e-05, momentum=0.1, affine=True, track_running_stats=True) (downsample): Sequential( (0): Conv2d(128, 256, kernel_size=(1, 1), stride=(2, 2), bias=False) (1): BatchNorm2d(256, eps=1e-05, momentum=0.1, affine=True, track_running_stats=True) ) ) (1): BasicBlock( (conv1): Conv2d(256, 256, kernel_size=(3, 3), stride=(1, 1), padding=(1, 1), bias=False) (bn1): BatchNorm2d(256, eps=1e-05, momentum=0.1, affine=True, track_running_stats=True) (relu): ReLU(inplace=True) (conv2): Conv2d(256, 256, kernel_size=(3, 3), stride=(1, 1), padding=(1, 1), bias=False) (bn2): BatchNorm2d(256, eps=1e-05, momentum=0.1, affine=True, track_running_stats=True) ) ) (7): Sequential( (0): BasicBlock( (conv1): Conv2d(256, 512, kernel_size=(3, 3), stride=(2, 2), padding=(1, 1), bias=False) (bn1): BatchNorm2d(512, eps=1e-05, momentum=0.1, affine=True, track_running_stats=True) (relu): ReLU(inplace=True) (conv2): Conv2d(512, 512, kernel_size=(3, 3), stride=(1, 1), padding=(1, 1), bias=False) (bn2): BatchNorm2d(512, eps=1e-05, momentum=0.1, affine=True, track_running_stats=True) (downsample): Sequential( (0): Conv2d(256, 512, kernel_size=(1, 1), stride=(2, 2), bias=False) (1): BatchNorm2d(512, eps=1e-05, momentum=0.1, affine=True, track_running_stats=True) ) ) (1): BasicBlock( (conv1): Conv2d(512, 512, kernel_size=(3, 3), stride=(1, 1), padding=(1, 1), bias=False) (bn1): BatchNorm2d(512, eps=1e-05, momentum=0.1, affine=True, track_running_stats=True) (relu): ReLU(inplace=True) (conv2): Conv2d(512, 512, kernel_size=(3, 3), stride=(1, 1), padding=(1, 1), bias=False) (bn2): BatchNorm2d(512, eps=1e-05, momentum=0.1, affine=True, track_running_stats=True) ) ) (8): AdaptiveAvgPool2d(output_size=(1, 1)) ) (imagehead): MLP( (mlp): Sequential( (dense_layer_0): Sequential( (0): Dropout(p=0.1, inplace=False) (1): Linear(in_features=512, out_features=64, bias=True) (2): LeakyReLU(negative_slope=0.01, inplace=True) ) (dense_layer_1): Sequential( (0): Dropout(p=0.1, inplace=False) (1): Linear(in_features=64, out_features=8, bias=True) (2): LeakyReLU(negative_slope=0.01, inplace=True) ) ) ) ) . deepimage(X_img) . tensor([[ … grad_fn=&lt;LeakyReluBackward1&gt;) . 5.5. deephead . The are two possibilities when defining the so-called deephead component. . When defining the WideDeep model there is a parameter called head_hidden_dims (and the corresponding related parameters. See the package
…
