…
processor(embed_cols=cat_embed_cols, continuous_cols=continuous_cols) X_deep = preprocess_deep.fit_transform(adult) . wide = Wide(wide_dim=np.unique(X_wide).shape[0], pred_dim=1) # We can add dropout and batchnorm to the dense layers deepdense = DeepDense(hidden_layers=[64,32], dropout=[0.5, 0.5], batchnorm=True, deep_column_idx=preprocess_deep.deep_column_idx, embed_input=preprocess_deep.embeddings_input, continuous_cols=continuous_cols) model = WideDeep(wide=wide, deepdense=deepdense) . Let&#39;s have a look to the model that we will be running: . model . WideDeep( (wide): Wide( (wide_linear): Embedding(797, 1, padding_idx=0) ) (deepdense): Sequential( (0): DeepDense( (embed_layers): ModuleDict( (emb_layer_education): Embedding(17, 16) (emb_layer_native_country): Embedding(43, 16) (emb_layer_occupation): Embedding(16, 16) (emb_layer_relationship): Embedding(7, 8) (emb_layer_workclass): Embedding(10, 16) ) (embed_dropout): Dropout(p=0.0, inplace=False) (dense): Sequential( (dense_layer_0): Sequential( (0): Linear(in_features=74, out_features=64, bias=True) (1): LeakyReLU(negative_slope=0.01, inplace=True) (2): BatchNorm1d(64, eps=1e-05, momentum=0.1, affine=True, track_running_stats=True) (3): Dropout(p=0.5, inplace=False) ) (dense_layer_1): Sequential( (0): Linear(in_features=64, out_features=32, bias=True) (1): LeakyReLU(negative_slope=0.01, inplace=True) (2): BatchNorm1d(32, eps=1e-05, momentum=0.1, affine=True, track_running_stats=True) (3): Dropout(p=0.5, inplace=False) ) ) ) (1): Linear(in_features=32, out_features=1, bias=True) ) ) . Now we will define the set up for each model component, including optimizers, learning rate schedulers and initializers: . # Optimizers wide_opt = torch.optim.Adam(model.wide.parameters(), lr=0.03) deep_opt = RAdam(model.deepdense.parameters(), lr=0.1) # LR Schedulers wide_sch = torch.optim.lr_scheduler.StepLR(wide_opt, step_size=3) deep_sch = torch
…
s_cols) deeptext = DeepText(vocab_size=len(text_preprocessor.vocab.itos), hidden_dim=64, n_layers=2, rnn_dropout=0.5, embedding_matrix=text_preprocessor.embedding_matrix) deepimage = DeepImage(pretrained=True, freeze=7, head_layers=[512, 256, 128]) . ...and, as we build the model, add a fully connected head via the input parameters (could also be used via the additional component/parameter deephead) . model = WideDeep(wide=wide, deepdense=deepdense, deeptext=deeptext, deepimage=deepimage, head_layers=[128, 64]) . Let&#39;s have a look to the model . model . WideDeep( (wide): Wide( (wide_linear): Embedding(357, 1, padding_idx=0) ) (deepdense): DeepDense( (embed_layers): ModuleDict( (emb_layer_accommodates_catg): Embedding(4, 16) (emb_layer_bathrooms_catg): Embedding(4, 16) (emb_layer_bedrooms_catg): Embedding(5, 16) (emb_layer_beds_catg): Embedding(5, 16) (emb_layer_cancellation_policy): Embedding(6, 16) (emb_layer_guests_included_catg): Embedding(4, 16) (emb_layer_host_listings_count_catg): Embedding(5, 16) (emb_layer_minimum_nights_catg): Embedding(4, 16) (emb_layer_neighbourhood_cleansed): Embedding(33, 64) ) (embed_dropout): Dropout(p=0.0, inplace=False) (dense): Sequential( (dense_layer_0): Sequential( (0): Linear(in_features=196, out_features=128, bias=True) (1): LeakyReLU(negative_slope=0.01, inplace=True) (2): Dropout(p=0.5, inplace=False) ) (dense_layer_1): Sequential( (0): Linear(in_features=128, out_features=64, bias=True) (1): LeakyReLU(negative_slope=0.01, inplace=True) (2): Dropout(p=0.5, inplace=False) ) ) ) (deeptext): DeepText( (word_embed): Embedding(2192, 100, padding_idx=1) (rnn): LSTM(100, 64, num_layers=2, batch_first=True, dropout=0.5) ) (deepimage): DeepImage( (backbone): Sequential( (0): Conv2d(3, 64, kernel_size=(7, 7), stride=(2, 2), padding=(3, 3), bias=False) (1): BatchNorm2d(64, eps=1e-05, momentum=0.1, affine=True, track_running_stats=True) (2): ReLU(inplace=True) (3): MaxPool2d(kernel_size=3, stride=2, padding=1, dilation=1, ceil_mode=False) (4): Sequential( (0): BasicBlock( (conv1): Conv2d(64, 64, kernel_size=(3, 3), stride=(1, 1), padding=(1, 1), bias=False) (bn1): BatchNorm2d(64, eps=1e-05, momentum=0.1, affine=True, track_running_stats=True) (relu): ReLU(inplace=True) (conv2): Conv2d(64, 64, kernel_size=(3, 3), stride=(1, 1), padding=(1, 1), bias=False) (bn2): BatchNorm2d(64, eps=1e-05, momentum=0.1, affine=True, track_running_stats=True) ) (1): BasicBlock( (conv1): Conv2d(64, 64, kernel_size=(3, 3), stride=(1, 1), padding=(1, 1), bias=False) (bn1): BatchNorm2d(64, eps=1e-05, momentum=0.1, affine=True, track_running_stats=True) (relu): ReLU(inplace=True) (conv2): Conv2d(64, 64, kernel_size=(3, 3), stride=(1, 1), padding=(1, 1), bias=False) (bn2): BatchNorm2d(64, eps=1e-05, momentum=0.1, affine=True, track_running_stats=True) ) ) (5): Sequential( (0): BasicBlock( (conv1): Conv2d(64, 128, kernel_size=(3, 3), stride=(2, 2), padding=(1, 1), bias=False) (bn1): BatchNorm2d(128, eps=1e-05, momentum=0.1, affine=True, track_running_stats=True) (relu): ReLU(inplace=True) (conv2): Conv2d(128, 128, kernel_size=(3, 3), stride=(1, 1), padding=(1, 1), bias=False) (bn2): BatchNorm2d(128, eps=1e-05, momentum=0.1, affine=True, track_running_stats=True) (downsample): Sequential( (0): Conv2d(64, 128, kernel_size=(1, 1), stride=(2, 2), bias=False) (1): BatchNorm2d(128, eps=1e-05, momentum=0.1, affine=True, track_running_stats=True) ) ) (1): BasicBlock( (conv1): Conv2d(128, 128, kernel_size=(3, 3), stride=(1, 1), padding=(1, 1), bias=False) (bn1): BatchNorm2d(128, eps=1e-05, momentum=0.1, affine=True, track_running_stats=True) (relu): ReLU(inplace=True) (conv2): Conv2d(128, 128, kernel_size=(3, 3), stride=(1, 1), padding=(1, 1), bias=False) (bn2): BatchNorm2d(128, eps=1e-05, momentum=0.1, affine=True, track_running_stats=True) ) ) (6): Sequential( (0): BasicBlock( (conv1): Conv2d(128, 256, kernel_size=(3, 3), stride=(2, 2), padding=(1, 1), bias=False) (bn1): BatchNorm2d(256, eps=1e-05, momentum=0.1, affine=True, track_running_stats=True) (relu): ReLU(inplace=True) (conv2): Conv2d(256, 256, kernel_size=(3, 3), stride=(1, 1), padding=(1, 1), bias=False) (bn2): BatchNorm2d(256, eps=1e-05, momentum=0.1, affine=True, track_running_stats=True) (downsample): Sequential( (0): Conv2d(128, 256, kernel_size=(1, 1), stride=(2, 2), bias=False) (1): BatchNorm2d(256, eps=1e-05, momentum=0.1, affine=True, track_running_stats=True) ) ) (1): BasicBlock( (conv1): Conv2d(256, 256, kernel_size=(3, 3), stride=(1, 1), padding=(1, 1), bias=False) (bn1): BatchNorm2d(256, eps=1e-05, momentum=0.1, affine=True, track_running_stats=True) (relu): ReLU(inplace=True) (conv2): Conv2d(256, 256, kernel_size=(3, 3), stride=(1, 1), padding=(1, 1), bias=False) (bn2): BatchNorm2d(256, eps=1e-05, momentum=0.1, affine=True, track_running_stats=True) ) ) (7): Sequential( (0): BasicBlock( (conv1): Conv2d(256, 512, kernel_size=(3, 3), stride=(2, 2), padding=(1, 1), bias=False) (bn1): BatchNorm2d(512, eps=1e-05, momentum=0.1, affine=True, track_running_stats=True) (relu): ReLU(inplace=True) (conv2): Conv2d(512, 512, kernel_size=(3, 3), stride=(1, 1), padding=(1, 1), bias=False) (bn2): BatchNorm2d(512, eps=1e-05, momentum=0.1, affine=True, track_running_stats=True) (downsample): Sequential( (0): Conv2d(256, 512, kernel_size=(1, 1), stride=(2, 2), bias=False) (1): BatchNorm2d(512, eps=1e-05, momentum=0.1, affine=True, track_running_stats=True) ) ) (1): BasicBlock( (conv1): Conv2d(512, 512, kernel_size=(3, 3), stride=(1, 1), padding=(1, 1), bias=False) (bn1): BatchNorm2d(512, eps=1e-05, momentum=0.1, affine=True, track_running_stats=True) (relu): ReLU(inplace=True) (conv2): Conv2d(512, 512, kernel_size=(3, 3), stride=(1, 1), padding=(1, 1), bias=False) (bn2): BatchNorm2d(512, eps=1e-05, momentum=0.1, affine=True, track_running_stats=True) ) ) (8): AdaptiveAvgPool2d(output_size=(1, 1)) ) (imagehead): Sequential( (dense_layer_0): Sequential( (0): Linear(in_features=512, out_features=256, bias=True) (1): LeakyReLU(negative_slope=0.01, inplace=True) (2): Dropout(p=0.0, inplace=False) ) (dense_layer_1): Sequential( (0): Linear(in_features=256, out_features=128, bias=True) (1): LeakyReLU(negative_slope=0.01, inplace=True) (2): Dropout(p=0.0, inplace=False) ) ) ) (deephead): Sequential( (head_layer_0): Sequential( (0): Linear(in_features=256, out_features=128, bias=True) (1): LeakyReLU(negative_slope=0.01, inplace=True) (2): Dropout(p=0.0, inplace=False) ) (head_layer_1): Sequential( (0): Linear(in_features=128, out_features=64, bias=True) (1): LeakyReLU(negative_slope=0.01, inplace=True) (2): Dropout(p=0.0, inplace=False) ) (head_out): Linear(in_features=64, out_features=1, bias=True) ) ) . This is a big model, so let me go component by component. . wide: simple linear model implemented via an Embedding layer . | deepdense: embeddings concatenated to categorical columns that are then passed through two dense layers with the following sizes [196 $ rightarrow$ 128 $ rightarrow$ 64]. . | deeptext: two stacked LTSMs that will received the 
…
) o, h = self.rnn(embed) return torch.cat((h[-2], h[-1]), dim=1) . And from here, &quot;proceed as usual&quot; . wide = Wide(wide_dim=np.unique(X_wide).shape[0], pred_dim=1) deepdense = DeepDense( hidden_layers=[64,32], dropout=[0.2,0.2], deep_column_idx=deep_preprocessor.deep_column_idx, embed_input=deep_preprocessor.embeddings_input, continuous_cols=continuous_cols) mydeeptext = MyDeepText(vocab_size=len(text_preprocessor.vocab.itos)) model = WideDeep(wide=wide, deepdense=deepdense, deeptext=mydeeptext) model.compile(method=&#39;regression&#39;) . model . WideDeep( (wide): Wide( (wide_linear): Embedding(357, 1, padding_idx=0) ) (deepdense): Sequential( (0): DeepDense( (embed_layers): ModuleDict( (emb_layer_accommodates_catg): Embedding(4, 16) (emb_layer_bathrooms_catg): Embedding(4, 16) (emb_layer_bedrooms_catg): Embedding(5, 16) (emb_layer_beds_catg): Embedding(5, 16) (emb_layer_cancellation_policy): Embedding(6, 16) (emb_layer_guests_included_catg): Embedding(4, 16) (emb_layer_host_listings_count_catg): Embedding(5, 16) (emb_layer_minimum_nights_catg): Embedding(4, 16) (emb_layer_neighbourhood_cleansed): Embedding(33, 64) ) (embed_dropout): Dropout(p=0.0, inplace=False) (dense): Sequential( (dense_layer_0): Sequential( (0): Linear(in_features=196, out_features=64, bias=True) (1): LeakyReLU(negative_slope=0.01, inplace=True) (2): Dropout(p=0.2, inplace=False) ) (dense_layer_1): Sequential( (0): Linear(in_features=64, out_features=32, bias=True) (1): LeakyReLU(negative_slope=0.01, inplace=True) (2): Dropout(p=0.2, inplace=False) ) ) ) (1): Linear(in_features=32, out_features=1, bias=True) ) (deeptext): Sequential( (0): MyDeepText( (word_embed): Embedding(2192, 100, padding_idx=1) (rnn): GRU(100, 64, num_layers=2, batch_first=True, bidirectional=True) ) (1): Linear(in_features=128, out_features=1, bias=True) ) ) . model.fit(X_wide=X_wide, X_deep=X_deep, X_text=X_text, target=target, n_epochs=1, batch_size=32, val_split=0.2) . 0%| | 0/25 [00:00&lt;?, ?it/s] . Training . epoch 1: 100%|██████████| 25/25 [00:04&lt;00:00, 6.16it/s, loss=1.74e+4] valid: 100%|██████████| 7/7 [00:00&lt;00:00, 21.47it/s, loss=9.35e+3] . 5. Conclusion . In this second post I tried to 
…
es = [&#39;a&#39;, &#39;b&#39;, &#39;c&#39;, &#39;d&#39;, &#39;e&#39;] embed_input = [(u,i,j) for u,i,j in zip(colnames[:4], [4]*4, [8]*4)] deep_column_idx = {k:v for v,k in enumerate(colnames)} continuous_cols = [&#39;e&#39;] # my advice would be to not use dropout in the last layer, but I add the option because you never # know..there is crazy people everywhere. deepdense = DeepDense(hidden_layers=[16,8], dropout=[0.5, 0.], batchnorm=True, deep_column_idx=deep_column_idx, embed_input=embed_input, continuous_cols=continuous_cols) deepdense . DeepDense( (embed_layers): ModuleDict( (emb_layer_a): Embedding(4, 8) (emb_layer_b): Embedding(4, 8) (emb_layer_c): Embedding(4, 8) (emb_layer_d): Embedding(4, 8) ) (embed_dropout): Dropout(p=0.0, inplace=False) (dense): Sequential( (dense_layer_0): Sequential( (0): Linear(in_features=33, out_features=16, bias=True) (1): LeakyReLU(negative_slope=0.01, inplace=True) (2): BatchNorm1d(16, eps=1e-05, momentum=0.1, affine=True, track_running_stats=True) (3): Dropout(p=0.5, inplace=False) ) (dense_layer_1): Sequential( (0): Linear(in_features=16, out_features=8, bias=True) (1): LeakyReLU(negative_slope=0.01, inplace=True) (2): BatchNorm1d(8, eps=1e-05, momentum=0.1, affine=True, track_running_stats=True) (3): Dropout(p=0.0, inplace=False) ) ) ) . deepdense(X_deep) . tensor([[ … grad_fn=&lt;NativeBatchNormBackward&gt;) . Let&#39;s now have a look to DeepDenseResnet: . from pytorch_widedeep.models import DeepDenseResnet deepdense = DeepDenseResnet(blocks=[16,8], dropout=0.5, deep_column_idx=deep_column_idx, embed_input=embed_input, continuous_cols=continuous_cols) deepdense . DeepDenseResnet( (embed_layers): ModuleDict( (emb_layer_a): Embedding(4, 8) (emb_layer_b): Embedding(4, 8) (emb_layer_c): Embedding(4, 8) (emb_layer_d): Embedding(4, 8) ) (embed_dropout): Dropout(p=0.0, inplace=False) (dense_resnet): Sequential( (lin1): Linear(in_features=33, out_features=16, bias=True) (bn1): BatchNorm1d(16, eps=1e-05, momentum=0.1, affine=True, track_running_stats=True) (block_0): BasicBlock( (lin1): Linear(in_features=16, out_features=8, bias=True) (bn1): BatchNorm1d(8, eps=1e-05, momentum=0.1, affine=True, track_running_stats=True) (leaky_relu): LeakyReLU(negative_slope=0.01, inplace=True) (dp): Dropout(p=0.5, inplace=False) (lin2): Linear(in_features=8, out_features=8, bias=True) (bn2): BatchNorm1d(8, eps=1e-05, momentum=0.1, affine=True, track_running_stats=True) (resize): Sequential( (0): Linear(in_features=16, out_features=8, bias=True) (1): BatchNorm1d(8, eps=1e-05, momentum=0.1, affine=True, track_running_stats=True) ) ) ) ) . deepdense(X_deep) . tensor([[… grad_fn=&lt;LeakyReluBackward1&gt;) . 5.3. DeepText . The DeepText class within the WideDeep package is a standard and simple stack of LSTMs on top of word embeddings. You could also add a FC-Head on top of the LSTMs. The word embeddings can be pre-trained. . In the future I aim to include f
…
final prediction) so that these activations are collected by WideDeep and combined accordingly. In addition, the models MUST also contain an attribute output_dim with the size of these last layers of activations. . I will illustrate all of the above more in detail in the second post of these series. . Let&#39;s have a look to DeepText . import torch from pytorch_widedeep.models import DeepText . X_text = torch.cat((torch.zeros([5,1]), torch.empty(5, 4).random_(1,4)), axis=1) deeptext = DeepText(vocab_size=4, hidden_dim=4, n_layers=1, padding_idx=0, embed_dim=4) deeptext . DeepText( (word_embed): Embedding(4, 4, padding_idx=0) (rnn): LSTM(4, 4, batch_first=True) ) . deeptext(X_text) . tensor([[ … grad_fn=&lt;SelectBackward&gt;) . You could, if you wanted, add a Fully Connected Head (FC-Head) on top of it . deeptext = DeepText(vocab_size=4, hidden_dim=8, n_layers=1, padding_idx=0, embed_dim=4, head_layers=[8,4], head_batchnorm=True, head_dropout=[0.5, 0.5]) . deeptext . DeepText( (word_embed): Embedding(4, 4, padding_idx=0) (rnn): LSTM(4, 8, batch_first=True) (texthead): Sequential( (dense_layer_0): Sequential( (0): Linear(in_features=8, out_features=4, bias=True) (1): LeakyReLU(negative_slope=0.01, inplace=True) (2): BatchNorm1d(4, eps=1e-05, momentum=0.1, affine=True, track_running_stats=True) (3): Dropout(p=0.5, inplace=False) ) ) ) . deeptext(X_text) . tensor([[ … grad_fn=&lt;MulBackward0&gt;) . 5.4. DeepImage . The DeepImage class within the WideDeep package builds either a pre-trained ResNet (18, 34, or 50. Default is 18) or a stack of CNNs, to which one can add a FC-Head. If is a pre-trained ResNet, you can chose how many layers you want to defrost deep into the network with the parameter freeze. Read here for more details. . from pytorch_widedeep.models import DeepImage X_img = torch.rand((2,3,224,224)) deepimage = DeepImage(pretrained=False, head_layers=[512, 64, 8]) deepimage . DeepImage( (backbone): Sequential( (0): Sequential( (0): Conv2d(3, 64, kernel_size=(3, 3), stride=(1, 1), padding=(1, 1)) (1): BatchNorm2d(64, eps=1e-05, momentum=0.01, affine=True, track_running_stats=True) (2): LeakyReLU(negative_slope=0.1, inplace=True) (maxpool): MaxPool2d(kernel_size=2, stride=2, padding=0, dilation=1, ceil_mode=False) ) (1): Sequential( (0): Conv2d(64, 128, kernel_size=(1, 1), stride=(1, 1)) (1): BatchNorm2d(128, eps=1e-05, momentum=0.01, affine=True, track_running_stats=True) (2): LeakyReLU(negative_slope=0.1, inplace=True) ) (2): Sequential( (0): Conv2d(128, 256, kernel_size=(1, 1), stride=(1, 1)) (1): BatchNorm2d(256, eps=1e-05, momentum=0.01, affine=True, track_running_stats=True) (2): LeakyReLU(negative_slope=0.1, inplace=True) ) (3): Sequential( (0): Conv2d(256, 512, kernel_size=(1, 1), stride=(1, 1)) (1): BatchNorm2d(512, eps=1e-05, momentum=0.01, affine=True, track_running_stats=True) (2): LeakyReLU(negative_slope=0.1, inplace=True) (adaptiveavgpool): AdaptiveAvgPool2d(output_size=(1, 1)) ) ) (imagehead): Sequential( (dense_layer_0): Sequential( (0): Linear(in_features=512, out_features=64, bias=True) (1): LeakyReLU(negative_slope=0.01, inplace=True) (2): Dropout(p=0.0, inplace=False) ) (dense_layer_1): Sequential( (0): Linear(in_features=64, out_features=8, bias=True) (1): LeakyReLU(negative_slope=0.01, inplace=True) (2): Dropout(p=0.0, inplace=False) ) ) ) . deepimage(X_img) . tensor([[ … grad_fn=&lt;LeakyReluBackward1&gt;) . 5.5. deephead . Note that I do not use uppercase here. This is because, by default, the deephead is not necessarily defined outside WideDeep as a class on its own, like the the rest of the compon
…
